Python_INMP441/model_CNN.tflite (tflite, 19776 bytes, 5 tensors)

sequential/dense_1/MatMul i1 [4, 16] scale=0.0048786034 zero_point=0
000000 1e 83 52 e2 ed 34 a8 07 c5 23 ee 81 48 60 f8 5d
       0.1463581 -0.60982543 0.40004548 -0.1463581 -0.09269346 0.25368738 -0.4293171 0.034150224 -0.2878376 0.17075112 -0.08781486 -0.61958265 0.35125944 0.46834594 -0.039028827 0.4537101
000010 d6 19 c5 99 44 2f 03 eb 54 56 9a c4 d6 21 4d 0b
       -0.20490134 0.12196509 -0.2878376 -0.5024961 0.33174503 0.22929436 0.014635811 -0.10245067 0.40980268 0.4195599 -0.49761754 -0.2927162 -0.20490134 0.16099392 0.37565246 0.053664636
000020 05 ac 8f bc dc 3d 90 7f 10 1c b0 20 13 85 52 e6
       0.024393016 -0.40980268 -0.55128217 -0.33174503 -0.17562972 0.29759482 -0.5464036 0.61958265 0.078057654 0.1366009 -0.39028826 0.15611531 0.09269346 -0.6000682 0.40004548 -0.12684369
000030 95 54 69 0c 65 b8 aa c2 4a cd 89 31 f3 5f bd 2f
       -0.52201056 0.40980268 0.51225334 0.058543243 0.49273893 -0.35125944 -0.4195599 -0.3024734 0.36101666 -0.24880877 -0.5805538 0.23905157 -0.063421845 0.46346733 -0.32686642 0.22929436

sequential/dense/MatMul i1 [16, 624] scale=0.0020282394 zero_point=0
000000 0f 17 17 04 fe ed ac be 03 e6 e6 dc 06 58 fe cc
       0.03042359 0.04664951 0.04664951 0.008112958 -0.004056479 -0.03853655 -0.17037211 -0.1338638 0.0060847183 -0.052734226 -0.052734226 -0.07301662 0.012169437 0.17848507 -0.004056479 -0.10546845
000010 f1 40 0c 36 f3 0d d3 0a 1e 32 13 2b f0 f1 12 e0
       -0.03042359 0.12980732 0.024338873 0.10952493 -0.026367113 0.026367113 -0.091270775 0.020282395 0.06084718 0.10141197 0.03853655 0.0872143 -0.03245183 -0.03042359 0.03650831 -0.06490366
000020 18 f2 0c 26 d4 0a cc f4 e4 2b 0e dd e2 e9 ec f1
       0.048677746 -0.028395351 0.024338873 0.0770731 -0.08924253 0.020282395 -0.10546845 -0.024338873 -0.056790702 0.0872143 0.028395351 -0.07098838 -0.06084718 -0.04664951 -0.04056479 -0.03042359
000030 04 4d 27 3c 05 ca 08 ed d6 10 ed d8 1e 56 15 d1
       0.008112958 0.15617444 0.07910134 0.12169436 0.010141198 -0.10952493 0.016225915 -0.03853655 -0.08518606 0.03245183 -0.03853655 -0.08112958 0.06084718 0.1744286 0.04259303 -0.09532725
000040 0b 41 f8 fe d4 d8 3c 19 e7 f7 0c e9 d0 01 f5 d2
       0.022310633 0.13183556 -0.016225915 -0.004056479 -0.08924253 -0.08112958 0.12169436 0.050705984 -0.050705984 -0.018254155 0.024338873 -0.04664951 -0.09735549 0.0020282394 -0.022310633 -0.09329902
000050 1b eb d2 05 e3 1a de fb 2b e1 2b 23 f2 1f 40 f3
       0.054762464 -0.04259303 -0.09329902 0.010141198 -0.058818944 0.052734226 -0.06896014 -0.010141198 0.0872143 -0.06287542 0.0872143 0.07098838 -0.028395351 0.06287542 0.12980732 -0.026367113
000060 fa 25 08 15 0c d6 c1 b5 0c 24 ed f4 0d 0c 32 eb
       -0.012169437 0.075044855 0.016225915 0.04259303 0.024338873 -0.08518606 -0.12777908 -0.15211795 0.024338873 0.07301662 -0.03853655 -0.024338873 0.026367113 0.024338873 0.10141197 -0.04259303
000070 d0 32 07 ef fb e1 43 15 e9 12 dd 26 f0 eb 27 da
       -0.09735549 0.10141197 0.0141976755 -0.03448007 -0.010141198 -0.06287542 0.13589205 0.04259303 -0.04664951 0.03650831 -0.07098838 0.0770731 -0.03245183 -0.04259303 0.07910134 -0.0770731
000080 e4 31 f7 15 14 12 05 d4 d2 f7 43 35 ec e2 1f e1
       -0.056790702 0.099383734 -0.018254155 0.04259303 0.04056479 0.03650831 0.010141198 -0.08924253 -0.09329902 -0.018254155 0.13589205 0.10749669 -0.04056479 -0.06084718 0.06287542 -0.06287542
000090 34 43 01 38 0a d2 b0 b8 d1 dd f7 d9 de 5d 35 f2
       0.10546845 0.13589205 0.0020282394 0.113581404 0.020282395 -0.09329902 -0.16225916 -0.14603324 -0.09532725 -0.07098838 -0.018254155 -0.07910134 -0.06896014 0.18862626 0.10749669 -0.028395351
0000a0 ca 17 15 1d 21 ec 1d b2 22 33 e7 e3 0c ea 20 fb
       -0.10952493 0.04664951 0.04259303 0.058818944 0.0669319 -0.04056479 0.058818944 -0.15820268 0.06896014 0.10344021 -0.050705984 -0.058818944 0.024338873 -0.044621266 0.06490366 -0.010141198
0000b0 06 14 01 2d 21 e0 28 c7 24 f8 d5 e8 fd 11 3d d7
       0.012169437 0.04056479 0.0020282394 0.091270775 0.0669319 -0.06490366 0.08112958 -0.115609646 0.07301662 -0.016225915 -0.0872143 -0.048677746 -0.0060847183 0.03448007 0.123722605 -0.083157815
0000c0 ed 06 eb 07 f4 22 be c5 d8 22 ef 02 fa 0e d4 eb
       -0.03853655 0.012169437 -0.04259303 0.0141976755 -0.024338873 0.06896014 -0.1338638 -0.11966613 -0.08112958 0.06896014 -0.03448007 0.004056479 -0.012169437 0.028395351 -0.08924253 -0.04259303
0000d0 c7 0c 3b 2d 07 fe 03 cc 33 f1 1d 24 07 29 19 34
       -0.115609646 0.024338873 0.11966613 0.091270775 0.0141976755 -0.004056479 0.0060847183 -0.10546845 0.10344021 -0.03042359 0.058818944 0.07301662 0.0141976755 0.083157815 0.050705984 0.10546845
0000e0 d6 20 0a e1 ee d4 e6 01 ca 2c f3 fa bd cb 23 00
       -0.08518606 0.06490366 0.020282395 -0.06287542 -0.03650831 -0.08924253 -0.052734226 0.0020282394 -0.10952493 0.08924253 -0.026367113 -0.012169437 -0.13589205 -0.10749669 0.07098838 0.0
0000f0 23 4e 0e f6 c3 e1 06 d5 17 fb 01 f1 1f 0d f9 ee
       0.07098838 0.15820268 0.028395351 -0.020282395 -0.123722605 -0.06287542 0.012169437 -0.0872143 0.04664951 -0.010141198 0.0020282394 -0.03042359 0.06287542 0.026367113 -0.0141976755 -0.03650831

sequential/conv2d_2/Conv2D i1 [8, 3, 3, 16]
000000 f8 1d c6 54 db 10 c6 5a 31 5c d0 d0 3d 23 db 58
       -8 29 -58 84 -37 16 -58 90 49 92 -48 -48 61 35 -37 88
000010 16 20 79 d3 d0 ef c8 a9 b2 fb dd 06 63 a4 42 fe
       22 32 121 -45 -48 -17 -56 -87 -78 -5 -35 6 99 -92 66 -2
000020 b1 98 92 f9 1f be 27 38 b7 d9 1e 28 54 5e 0b f5
       -79 -104 -110 -7 31 -66 39 56 -73 -39 30 40 84 94 11 -11
000030 3a 47 54 5e f5 26 ff 39 0c e1 06 81 e4 0b 11 16
       58 71 84 94 -11 38 -1 57 12 -31 6 -127 -28 11 17 22
000040 3f 10 29 dd 69 ff b7 07 ad e0 a5 cd f8 cb 20 fc
       63 16 41 -35 105 -1 -73 7 -83 -32 -91 -51 -8 -53 32 -4
000050 35 e6 05 1a 58 ca ed fe 19 02 e1 04 4f da 1a 32
       53 -26 5 26 88 -54 -19 -2 25 2 -31 4 79 -38 26 50
000060 c3 e0 6a e9 30 57 b8 c9 50 2f 45 0e e2 d5 09 6c
       -61 -32 106 -23 48 87 -72 -55 80 47 69 14 -30 -43 9 108
000070 28 1d 02 37 71 dd f9 b1 ce 09 a8 05 fc b4 33 12
       40 29 2 55 113 -35 -7 -79 -50 9 -88 5 -4 -76 51 18
000080 2d e8 b6 a4 77 e2 f0 3a 88 0b ed 37 f6 4a f5 29
       45 -24 -74 -92 119 -30 -16 58 -120 11 -19 55 -10 74 -11 41
000090 0b e5 7f eb 5a 0a ac a5 9b 2d 0d c7 44 e3 04 07
       11 -27 127 -21 90 10 -84 -91 -101 45 13 -57 68 -29 4 7
0000a0 ec cd 92 f0 4d 0f 0f 0c c3 4c df 30 4a e4 d5 cf
       -20 -51 -110 -16 77 15 15 12 -61 76 -33 48 74 -28 -43 -49
0000b0 04 a7 dc bf 2b 0a d7 21 19 30 48 d7 fd f2 42 c6
       4 -89 -36 -65 43 10 -41 33 25 48 72 -41 -3 -14 66 -58
0000c0 1d 0d 28 13 5f c3 29 9b 9d 14 d6 a2 46 ec 3f c5
       29 13 40 19 95 -61 41 -101 -99 20 -42 -94 70 -20 63 -59
0000d0 c7 23 d1 ce 37 c2 e4 c6 dc 4b de 46 5e 38 04 14
       -57 35 -47 -50 55 -62 -28 -58 -36 75 -34 70 94 56 4 20
0000e0 ef d5 33 28 45 de d1 c8 de e8 30 be ee be be 35
       -17 -43 51 40 69 -34 -47 -56 -34 -24 48 -66 -18 -66 -66 53
0000f0 f3 69 16 31 38 3d b1 3d cc 52 e9 d4 0e f5 f6 cb
       -13 105 22 49 56 61 -79 61 -52 82 -23 -44 14 -11 -10 -53

sequential/conv2d_1/Conv2D i1 [16, 3, 3, 16]
000000 b5 e5 c8 0f 5e 9e ef ed d6 81 37 00 ba c7 cd d1
       -75 -27 -56 15 94 -98 -17 -19 -42 -127 55 0 -70 -57 -51 -47
000010 33 07 cb 19 ba f2 55 46 f8 5c c9 5c 1a e5 09 3c
       51 7 -53 25 -70 -14 85 70 -8 92 -55 92 26 -27 9 60
000020 41 48 54 c8 cb 04 ec ec ef eb cf 33 2a 08 07 00
       65 72 84 -56 -53 4 -20 -20 -17 -21 -49 51 42 8 7 0
000030 dd e1 f7 35 e0 fc 07 25 bf 14 20 99 ac ee 21 5a
       -35 -31 -9 53 -32 -4 7 37 -65 20 32 -103 -84 -18 33 90
000040 56 db 41 f8 1e 26 02 e8 3e f0 b8 20 22 c8 45 d7
       86 -37 65 -8 30 38 2 -24 62 -16 -72 32 34 -56 69 -41
000050 be 51 bf 46 f3 06 4d 10 b5 50 1a d6 04 e1 43 a8
       -66 81 -65 70 -13 6 77 16 -75 80 26 -42 4 -31 67 -88
000060 0d fc 9f 51 3d c5 c2 21 c5 12 36 db 30 cc e6 51
       13 -4 -97 81 61 -59 -62 33 -59 18 54 -37 48 -52 -26 81
000070 ba 5e 37 3c 35 01 ca c9 40 31 40 10 52 54 fc 1e
       -70 94 55 60 53 1 -54 -55 64 49 64 16 82 84 -4 30
000080 1e 07 b6 36 b3 27 d4 51 ce 31 a8 1b d8 50 c7 9b
       30 7 -74 54 -77 39 -44 81 -50 49 -88 27 -40 80 -57 -101
000090 d6 da cf 1e c4 3e 07 21 10 ad 39 c0 11 be db bf
       -42 -38 -49 30 -60 62 7 33 16 -83 57 -64 17 -66 -37 -65
0000a0 47 43 61 49 ad ed f1 21 f9 0e 1d 50 00 cd 51 d8
       71 67 97 73 -83 -19 -15 33 -7 14 29 80 0 -51 81 -40
0000b0 5b 72 3c 07 d9 d4 78 20 5c 53 af 2c 2d 6a f2 23
       91 114 60 7 -39 -44 120 32 92 83 -81 44 45 106 -14 35
0000c0 1d 2b e1 4c 2c e9 2f 35 b8 fc 57 bd 40 de 26 cf
       29 43 -31 76 44 -23 47 53 -72 -4 87 -67 64 -34 38 -49
0000d0 64 f7 0f 28 04 17 2d 59 51 38 15 4a e0 53 45 ee
       100 -9 15 40 4 23 45 89 81 56 21 74 -32 83 69 -18
0000e0 f1 13 7d 02 37 d1 4f 7f 7a 1b f0 3b d0 5a 45 e6
       -15 19 125 2 55 -47 79 127 122 27 -16 59 -48 90 69 -26
0000f0 46 06 ed 4a bd f1 f5 2f b3 3e cc ba d5 cf d2 d4
       70 6 -19 74 -67 -15 -11 47 -77 62 -52 -70 -43 -49 -46 -44

sequential/conv2d/Conv2D i1 [16, 3, 3, 1]
000000 01 68 8d 53 7f c3 50 77 cd 06 39 7f 39 3a 7b 59
       1 104 -115 83 127 -61 80 119 -51 6 57 127 57 58 123 89
000010 76 39 12 3b 75 0d 41 7f f7 5f fa 2c 46 b9 47 7f
       118 57 18 59 117 13 65 127 -9 95 -6 44 70 -71 71 127
000020 b4 1f f9 8d 7f ed e0 46 b8 90 74 f0 94 81 93 07
       -76 31 -7 -115 127 -19 -32 70 -72 -112 116 -16 -108 -127 -109 7
000030 ef ae 91 f4 58 0e f3 4f 4e 7f b9 15 d4 8d 1d 1c
       -17 -82 -111 -12 88 14 -13 79 78 127 -71 21 -44 -115 29 28
000040 7f c0 11 7b ef 4b 39 da 34 16 75 08 7f 2a 21 6a
       127 -64 17 123 -17 75 57 -38 52 22 117 8 127 42 33 106
000050 18 25 fc 7f 12 5b 55 39 08 5f 85 aa ac a8 18 1b
       24 37 -4 127 18 91 85 57 8 95 -123 -86 -84 -88 24 27
000060 97 81 a4 34 27 7f 2c 14 7c 41 f4 79 7f 81 bc 88
       -105 -127 -92 52 39 127 44 20 124 65 -12 121 127 -127 -68 -120
000070 eb 35 d2 75 10 7f 49 76 51 63 ec 6d 61 44 7f 4e
       -21 53 -46 117 16 127 73 118 81 99 -20 109 97 68 127 78
000080 91 e3 12 af ee e6 1d 7f 55 a7 7e b7 8c 2c d9 98
       -111 -29 18 -81 -18 -26 29 127 85 -89 126 -73 -116 44 -39 -104
